# DarkMark v1.6.16-1 output for Darknet
# Project .... /home/stephane/nn/streetsigns
# Config ..... /home/stephane/nn/streetsigns/streetsigns.cfg
# Template ... /home/stephane/darknet/cfg/yolov4-tiny.cfg
# Username ... stephane@2004-dev
# Timestamp .. Mon 2022-02-21 23:17:09 PST
#
# WARNING:  If you re-generate the darknet files for this project you'll
#           lose any customizations you are about to make in this file!
#

[net]
# Testing
#batch=1
#subdivisions=1
# Training
batch=1
subdivisions=1
width=1024
height=768
channels=3
momentum=0.9
decay=0.0005
angle=0
saturation=2.500000
exposure=2.500000
hue=0.500000

learning_rate=0.001000
burn_in=1000

max_batches=20000
policy=steps
steps=16000,18000
scales=.1,.1


#weights_reject_freq=1001
#ema_alpha=0.9998
#equidistant_point=1000
#num_sigmas_reject_badlabels=3
#badlabels_rejection_percentage=0.2
cutmix=0
flip=0
max_chart_loss=4.000000
mixup=0
mosaic=0
use_cuda_graph=0


[convolutional]
batch_normalize=1
filters=32
size=3
stride=2
pad=1
activation=leaky

[convolutional]
batch_normalize=1
filters=64
size=3
stride=2
pad=1
activation=leaky

[convolutional]
batch_normalize=1
filters=64
size=3
stride=1
pad=1
activation=leaky

[route]
layers=-1
groups=2
group_id=1

[convolutional]
batch_normalize=1
filters=32
size=3
stride=1
pad=1
activation=leaky

[convolutional]
batch_normalize=1
filters=32
size=3
stride=1
pad=1
activation=leaky

[route]
layers = -1,-2

[convolutional]
batch_normalize=1
filters=64
size=1
stride=1
pad=1
activation=leaky

[route]
layers = -6,-1

[maxpool]
size=2
stride=2

[convolutional]
batch_normalize=1
filters=128
size=3
stride=1
pad=1
activation=leaky

[route]
layers=-1
groups=2
group_id=1

[convolutional]
batch_normalize=1
filters=64
size=3
stride=1
pad=1
activation=leaky

[convolutional]
batch_normalize=1
filters=64
size=3
stride=1
pad=1
activation=leaky

[route]
layers = -1,-2

[convolutional]
batch_normalize=1
filters=128
size=1
stride=1
pad=1
activation=leaky

[route]
layers = -6,-1

[maxpool]
size=2
stride=2

[convolutional]
batch_normalize=1
filters=256
size=3
stride=1
pad=1
activation=leaky

[route]
layers=-1
groups=2
group_id=1

[convolutional]
batch_normalize=1
filters=128
size=3
stride=1
pad=1
activation=leaky

[convolutional]
batch_normalize=1
filters=128
size=3
stride=1
pad=1
activation=leaky

[route]
layers = -1,-2

[convolutional]
batch_normalize=1
filters=256
size=1
stride=1
pad=1
activation=leaky

[route]
layers = -6,-1

[maxpool]
size=2
stride=2

[convolutional]
batch_normalize=1
filters=512
size=3
stride=1
pad=1
activation=leaky

##################################

[convolutional]
batch_normalize=1
filters=256
size=1
stride=1
pad=1
activation=leaky

[convolutional]
batch_normalize=1
filters=512
size=3
stride=1
pad=1
activation=leaky

[convolutional]
size=1
stride=1
pad=1
filters=108
activation=linear



[yolo]
mask = 3,4,5
anchors=10, 47, 20, 33, 29, 53, 43, 82, 410, 106, 338, 333
classes=31
num=6
jitter=.3
scale_x_y = 1.05
cls_normalizer=1.0
iou_normalizer=0.07
iou_loss=ciou
ignore_thresh = .7
truth_thresh = 1
random=0
resize=1.5
nms_kind=greedynms
beta_nms=0.6
#new_coords=1
#scale_x_y = 2.0

[route]
layers = -4

[convolutional]
batch_normalize=1
filters=128
size=1
stride=1
pad=1
activation=leaky

[upsample]
stride=2

[route]
layers = -1, 23

[convolutional]
batch_normalize=1
filters=256
size=3
stride=1
pad=1
activation=leaky

[convolutional]
size=1
stride=1
pad=1
filters=108
activation=linear

[yolo]
mask = 0,1,2
anchors=10, 47, 20, 33, 29, 53, 43, 82, 410, 106, 338, 333
classes=31
num=6
jitter=.3
scale_x_y = 1.05
cls_normalizer=1.0
iou_normalizer=0.07
iou_loss=ciou
ignore_thresh = .7
truth_thresh = 1
random=0
resize=1.5
nms_kind=greedynms
beta_nms=0.6
#new_coords=1
#scale_x_y = 2.0
